linear.tflite (tflite, 822332 bytes, 4 tensors)

dense/MatMul_bias f4 [128]
00000000: 4c82 cabb 3d9a 0c3c e912 93ba 2413 d5ba
00000010: 624f a8bb dbf6 a3bb 3f5f b03a 6a33 63bb
00000020: 7aaa eaba 11e5 60bb 348c d23b 1a9c 60bb
00000030: e690 f3bb 1e80 e53b 5fb8 1d3b 36f1 003c
00000040: ec03 c33b ce5a 92bb 49e3 3cbb 9ca2 ff3b
00000050: 6fae 093a 02bb 7f3b 5ae9 bcbb 8069 6f3b
00000060: 2abe 833b 74af b13a 06d1 9d3b 391f 6cbb
00000070: e034 35bb 76b0 7fbb 6e3f e13b 29f5 053c
00000080: 8c95 ea3b 6008 a9ba 4c69 9e38 400d 88bb
00000090: 588f 113c 8f2f 3b3b a917 2fbb 951f 77bb
000000a0: a8a1 943b 4496 de3b 509e 6f3b 2041 993b
000000b0: b289 053b 5fba bf3b 38f9 adba 88b3 86bb
000000c0: b2fa cf3b f40e e53a 7875 8c3b eddc ef3b
000000d0: 22fe cf3a 860e b4bb c455 fa39 d4e4 bc3b
000000e0: 5ecd ed3b cb73 6cbb 2eda 553a 2793 1fba
000000f0: 80b7 3d3b 06b4 9a3b 99bd 823a 0df7 f13b
00000100: 3794 2dbb 3a4f 21bb 80f9 b03b 3581 c23b
00000110: 3c39 3c3b 7626 e7bb 8e22 b239 59e5 7b3a
00000120: c07f 8d3b 6751 edbb 163a a13b 1cdb 973a
00000130: 47bd 003c eb25 de3b 4246 b8bb 1bba 1e3b
00000140: c4d8 c53b 492e 38bb df10 f93b 59dc cebb
00000150: bd85 703b 44bf 973b b72c babb 8844 e2bb
00000160: d305 ae3a 073a e93b 65ba a43b 4942 5fbb
00000170: 9fa5 083c 70b5 c43b b04c 803b e101 edbb
00000180: 1e86 6d3b f610 a5bb 97f3 a03b c6f0 053c
00000190: 4b1b 463b 64f6 a039 830e ea3b ba4b 323b
000001a0: afec 123c 3a16 cc3b 8fad 653b 77cb 2a3b
000001b0: bdf6 003c 2671 ca3b 21f1 debb fece bd3b
000001c0: d808 b53b 5662 c03b 9672 beba 1a4c 8ebb
000001d0: cb81 0abb 98f8 883b de43 10bc 6a65 4f3b
000001e0: 4284 043c 20f7 8cbb b409 1abb be3f 163b
000001f0: 28d6 c23b 9e58 0c3c d97a 073b d997 cd3b
-0.0061800834 0.008581695 -0.0011220846 -0.0016256315 -0.0051364163 -0.0050037927 0.001345612 -0.0034668096
-0.0017903589 -0.0034316222 0.006425405 -0.0034272731 -0.0074330447 0.007003798 0.0024066193 0.007870009
0.0059513953 -0.004466391 -0.0028821996 0.007801367 0.0005252128 0.0039021377 -0.0057651224 0.0036531389
0.004020472 0.0013556317 0.0048161773 -0.0036029352 -0.0027649924 -0.003901509 0.0068740165 0.0081761265
0.0071589407 -0.0012896173 7.55364e-05 -0.00415197 0.0088842735 0.0028562283 -0.0026716983 -0.0037708033
0.0045358725 0.0067928154 0.0036562867 0.004676953 0.0020376262 0.0058510746 -0.0013273126 -0.0041107573
0.006347024 0.001747577 0.0042864643 0.0073200376 0.0015868584 -0.0054948954 0.00047747616 0.005764583
0.0072571477 -0.003607976 0.00081578165 -0.0006087296 0.0028948486 0.0047211675 0.0009974717 0.007384187
-0.0026486048 -0.0024613873 0.0054008365 0.005935813 0.0028720638 -0.0070541454 0.0003397655 0.00096090656
0.0043182075 -0.00724237 0.0049202545 0.0011585685 0.007857627 0.0067794225 -0.0056236098 0.0024219814
0.0060378034 -0.002810376 0.007600888 -0.0063128886 0.0036700808 0.004630955 -0.0056816 -0.006905142
0.0013276882 0.007117513 0.005027103 -0.0034066609 0.008340268 0.0060030743 0.003915392 -0.00723289
0.003624327 -0.0050374223 0.0049118507 0.008175081 0.003022867 0.00030701153 0.007142843 0.002720578
0.008967563 0.0062282356 0.0035046076 0.0026061216 0.007871327 0.006178039 -0.006803647 0.0057924977
0.005524736 0.0058710976 -0.0014529999 -0.004342568 -0.0021134492 0.0041800253 -0.008805243 0.003164614
0.008088173 -0.0043019205 -0.0023504319 0.0022926177 0.0059459396 0.00856605 0.0020672588 0.006274205

dense/kernel/transpose f4 [128, 1600]
00000000: 437d 3cbd 8c04 0cbd 1030 cd3c eaa5 35bd
00000010: aa62 36bd 9e87 5dbd 4992 423d 40eb 6f37
00000020: c896 f53c d239 ee3c 00f1 e03b 793c 43bd
00000030: 55d6 b93a 0309 36bd cd88 3fbc 680e 6a3d
00000040: 4414 bcbc 1d52 5dbd c77f 223d 6691 0e3d
00000050: 3432 99bc 8f4b 5f3d 5c31 15bd f84b babc
00000060: c389 5d3d b4bf 623c 2b28 33bd 9830 babc
00000070: 3af2 9ebc 28e7 33bc a0f1 a8bc fab4 943c
00000080: 85cc 5a3d 07d1 4bbd b616 a13c 5ea1 43bd
00000090: 2927 623d 362c e43c cd94 5f3d ec2c 3f3c
000000a0: 00f3 27bd a777 c2bc cad1 73bc c591 dc3c
000000b0: c55c dd3c 51ec 023c 9b1d d8bc 5ec4 c13c
000000c0: a27d 463d f505 b4bc 9e6c 8dbc a116 153d
000000d0: 1d5f 9a3c 5ee7 3d3d 5378 313c d646 443d
000000e0: 6c23 20bd 4d12 9b3c bab4 48bc a22a ea3c
000000f0: 3d6a 0a3d 8a93 4bbd 9e63 ee3c 805a 38bd
00000100: 7005 2c3b d506 3abd 4303 603d bc16 bdbc
00000110: 0196 483d 3cd8 82bc 9c69 5b3c 000e c3bb
00000120: 83ed 26bd 3c0a 8fbc b9ec 52bd 8e1b 0dbd
00000130: 3c0c 69bd 0a8d c4bc 698d 383d 3035 623b
00000140: cef4 41bd a001 2f3d 1513 c9bb f944 61ba
00000150: 3a0f 3cbd 02e2 04bd c2df b6bc 924e 543d
00000160: 704d 17bb 77f7 253d 184b a3bc 894d 9e3b
00000170: beef df3c fc5c ffbc 5f0e 2fbd 56ab 12bd
00000180: b6f8 1e3d adaf 113d 9539 f53c 13f8 633d
00000190: 310e af3b b517 5abd 4619 08bd e3e2 1e3d
000001a0: 6ce8 23bc ba8f 46bd 4c6c 4d3c b67d d93c
000001b0: cf85 583d 1cd2 29bc b9b4 3b3d ce0b cbbc
000001c0: 9828 f43b 0e02 3ebd 155f 303d 2d31 203d
000001d0: d84b 983b a027 98ba 9826 24bc 55e6 5b3d
000001e0: 297a 0d3d 1f49 22bd f359 853c 67f7 34bd
000001f0: cb9c e4bc 548a 443d 652c 0ebd 14c1 b3bc
00000200: daea 0a3d b645 f53c 6333 6f3d 38ff adbc
00000210: 419a 403d dfec fdbc 7a6c 423c b89b ee3c
00000220: b612 23bd 779a 2d3d a2cb f33c ba6b d63c
00000230: d643 babc fa85 69bd 27b3 473d d7ff 203d
00000240: 2ed8 ad3c 9ce2 6abd 9059 33bc cc0f 3d3c
00000250: 70fd ebbc 855b 71bd 891b 373d c305 533d
00000260: be44 9d3c 1022 743b 6678 f63c da22 ce3c
00000270: 9029 793b 7172 1b3d b471 0bbc f830 d2bc
00000280: 9bbb 15bd 12e9 46bd ba09 05bc a7bf 293c
00000290: 56dd 6e3c 2a3b 9dbc 84d8 f2bb f775 ae3a
000002a0: 4516 91bc 968e 803b 74dc 353c 487e e9bc
000002b0: 8436 733d 598c f33c 6516 7dbd f65f 5fbd
000002c0: 22fa 81bd 2fe5 633d bbdc 64bd 3a52 6bbd
000002d0: ec10 843d b46c d7bc eecb a33c 4764 433d
000002e0: 7ef7 2abd 5098 703b 565c 65bd e464 41bd
000002f0: b309 613d e8e3 e13b 28c5 5abd e82f 28bd
00000300: e170 003d 3e07 4ebd badf 933c 0ee5 843c
00000310: 15f9 6d3d b0ba 1dbc b83e f6bc 00ab 5fb9
00000320: be6c 6a3c c47d 3b3b a774 e03c 5156 083d
00000330: dbe6 633d 8e97 eabc 9fc8 ae3c 3a1e d13b
00000340: 6749 40bc 9f4e 933a 0455 75bd 408e 453d
00000350: 5ece c53c 91b4 173d fbf9 f63c 540e 2b3d
00000360: 3357 a5bc a6cc b6bc 0571 4a3d a64e b03c
00000370: 4cf7 43bd 1207 ef3c f2ea 16bd 200c 063b
00000380: 198c edbc 06c3 62bd ca4d 8ebc 2a63 c23c
00000390: a239 9cbc 1971 453d 0c8f 5d3c c8b4 c73b
000003a0: 5cce 7abc 3050 55bb 7472 413c 4643 39bd
000003b0: 2a96 3ebd 15fd 2b3d 662f 86bc 3960 34bd
000003c0: 15c6 69bd 69c0 2fbd 4069 babc c2d4 5d3b
000003d0: 34fe f9bc 2639 a13c 6c52 e4bc 90db 6dbd
000003e0: 7f24 2dbd 8f52 efbc 4035 54bd efa8 363d
000003f0: d427 9cbc c738 c63c 6ed2 143d d708 5f3c
-0.046017896 -0.034184024 0.025047332 -0.04434768 -0.044527687 -0.054084413 0.04750279 1.43002835e-05
0.029979125 0.029080305 0.006864667 -0.047665093 0.0014178256 -0.044442188 -0.011690331 0.057142645
-0.022958882 -0.054033387 0.03967264 0.03480663 -0.018700697 0.054515418 -0.036424026 -0.022741303
0.054086458 0.013839651 -0.04373948 -0.02272825 -0.019402612 -0.010980405 -0.020623028 0.018152703
0.0534177 -0.04975989 0.01966415 -0.047761314 0.055213127 0.027853113 0.054585267 0.011668425
-0.041003227 -0.023738695 -0.014881561 0.026924977 0.027021775 0.0079909125 -0.026381304 0.023653205
0.048459657 -0.021975497 -0.017263707 0.036398534 0.018844182 0.046363227 0.01083191 0.047919117
-0.03909628 0.018929625 -0.01225012 0.028584782 0.033792723 -0.04970125 0.029100236 -0.045008183
0.0026248358 -0.04541667 0.05469061 -0.02308213 0.04897118 -0.01597225 0.013391878 -0.0059525967
-0.040753853 -0.017460935 -0.051495288 -0.034450106 -0.056896433 -0.023993034 0.045056734 0.0034516566
-0.047352605 0.04272616 -0.006136308 -0.00085933466 -0.04591296 -0.0324421 -0.022323493 0.051832743
-0.0023086928 0.040519204 -0.019933268 0.0048310203 0.027335998 -0.031172268 -0.042738315 -0.03580793
0.038811408 0.035567928 0.029934684 0.055656504 0.005342268 -0.053245265 -0.033227228 0.038790595
-0.010004144 -0.048476912 0.012538027 0.026549201 0.052861985 -0.010365035 0.045826647 -0.024785902
0.007451128 -0.04638868 0.043059427 0.039109398 0.004647713 -0.0011608489 -0.010018967 0.05368646
0.03454033 -0.039620515 0.016278243 -0.044181254 -0.027906796 0.047983482 -0.034710307 -0.021942653
0.03391538 0.029940467 0.058398616 -0.021239862 0.047022108 -0.030996738 0.011866683 0.029126987
-0.039812766 0.042383637 0.029760186 0.026174415 -0.022737425 -0.057012536 0.048754837 0.039306488
0.021221247 -0.057345018 -0.010946646 0.011539411 -0.028807372 -0.05892517 0.044703994 0.051519167
0.019197818 0.0037251748 0.030086707 0.025163103 0.0038019158 0.037950937 -0.008510996 -0.025658116
-0.036555868 -0.048562117 -0.008119995 0.010360635 0.014579138 -0.01919325 -0.0074110646 0.0013310303
-0.017710814 0.0039232476 0.011099923 -0.028502598 0.059378162 0.029730009 -0.061788935 -0.054534875
-0.06346537 0.05563849 -0.055874567 -0.057451464 0.0644854 -0.02629695 0.019994702 0.047703054
-0.041739933 0.003671188 -0.05599626 -0.047215357 0.05494089 0.0068936236 -0.05341068 -0.041061312
0.03135765 -0.050299875 0.018051017 0.016222503 0.05809887 -0.009627029 -0.030059204 -0.0002133064
0.014308153 0.0028608898 0.027399374 0.033285443 0.055640083 -0.02863672 0.021335898 0.006381777
-0.0117362505 0.0011238641 -0.05989553 0.048231363 0.024146255 0.037037436 0.030148497 0.04176171
-0.020183181 -0.02231438 0.04942419 0.021521877 -0.047843263 0.029178176 -0.036845155 0.0020454004
-0.028997468 -0.05536177 -0.017371077 0.023728926 -0.01907045 0.04820356 0.013522875 0.006094549
-0.015307989 -0.0032549016 0.011807073 -0.045230173 -0.046529926 0.041989405 -0.016380023 -0.044037078
-0.05707367 -0.042908106 -0.022755265 0.0033848737 -0.030516721 0.01968057 -0.027871333 -0.05807072
-0.042271134 -0.029214172 -0.051808596 0.0445947 -0.01906196 0.024196995 0.036333494 0.013612947

dense_1/MatMul_bias f4 [3]
00000000: 2966 2bbb bb3f 0c39 7e96 a43b
-0.0026153421 0.00013375182 0.005022823

dense_1/kernel/transpose f4 [3, 128]
00000000: aaf3 053e 4ad4 023e 0963 183e b019 333e
00000010: 88f3 4e3d 4b08 9d3d ccf2 5b3e 0580 d0bd
00000020: 3136 403e a592 0bbe 858f 5f3d e487 4fbe
00000030: 6fc1 de3d 1f76 b73d 93ac 163e 8c7e cabd
00000040: 5a22 c0bd bb8b ce3d 2d25 5e3e 13a6 02be
00000050: 757f 3dbb f1b1 343d 6bfe 813d a913 5cbe
00000060: dd48 3ebe 73d0 acbc 4f6c 59bd c57f 3c3d
00000070: c356 ff3d 7766 c1bc 1f2a e1bd 0434 8bbd
00000080: afb1 3bbc 5cbd 883c a40b f2bd 22e1 ebbb
00000090: 21e7 3bbe 5b3a ebbd 789b ee3d 8314 d63d
000000a0: 7269 96bb 4c67 57be 79b1 cabd d9bc 19be
000000b0: 6abb 38be 5097 03b9 1ed0 2d3e 0455 02be
000000c0: 8414 97bd 5a32 6e3d d158 e0bd 577e 84bc
000000d0: 75b4 08be e392 c93c 1db5 a5bc 0899 d9bb
000000e0: a06d fcbd d50a 2f3e c961 c5bb f128 433e
000000f0: 8475 a43d a02c 75bd 9abb bcbd ec37 f23d
00000100: eb04 96bb e21e cc3d 3ccb 11bd 12bd 253d
00000110: c06d e4bd c072 a73c cc7e 0abe 2409 64bd
00000120: 742c d73c 19b7 43be 7bef 70bd 7978 393d
00000130: 15bb 413b 2d03 44be 0301 8abc 8435 e9bd
00000140: 6d25 1bbe 4e49 0e3e 29f9 42be f5c1 233e
00000150: 1a9b eb3c 2683 3abe e7bd 423d 5007 e23d
00000160: ac88 033e 8a35 413d d8e8 f5bd 1368 503d
00000170: 9396 61be e984 c53d 37b5 fe3c c97f e53d
00000180: 81c4 823d b0d2 473e 578b 8f3d 94c5 303c
00000190: db2e 14be cf29 57be 24b9 45be 4572 4a3d
000001a0: 4540 963c dfbf e53d 60f5 163e 0789 50be
000001b0: c5d3 dcbd 9edf ed3d 6186 27bd 7c39 153d
000001c0: f47a eb3d 94e4 4b3e a920 09be 022c 64bd
000001d0: 0e3a 553e 0896 bb3d bbf1 233e c46c 40be
000001e0: a071 18bd db03 483e 8fa4 f83d 75fb 35be
000001f0: a13e 593d 35b1 c53d 0c7c 4c3d 84fb c03d
00000200: 500d 103e 8323 4ebe 63f1 f3bd f5ba 0e3e
00000210: b4b4 dd3d ea42 333e 5ce9 e03d 542d ae3d
00000220: b095 37bd 461c 983c 7806 ec3c f651 11be
00000230: eeab 103e 7315 46bd c2cd cc3d a503 ddbd
00000240: 27f9 503e f5b0 d93c c2fc 3c3e c900 3e3e
00000250: c995 a53b 7939 60be 9524 8cbd 558c 7cbd
00000260: c4ce 58be bba1 e63d d2d7 49be 2264 25be
00000270: 933c 923d 92af 20be 7567 46be 85de 08bd
00000280: 4c4c 0abe a6d1 ff3d 9629 e6bd 6c21 1d3e
00000290: d30c 3ebe 9957 dabd 734e 153e 0814 1c3e
000002a0: c091 72bd b210 5c3e c2ab 49be 41c1 4a3d
000002b0: 3aab 213e 7254 49be 1b39 203e cbb1 21be
000002c0: 2166 563e a651 2a3d 2555 3b3e a7f8 36be
000002d0: dc3b 21be be4d 45be cb8f 1d3e 602c 4fbe
000002e0: 48aa 253e 81fa 503e 008a e23d 1069 16be
000002f0: a63b 58be b6fd 0abe 603d 443d c502 4e3e
00000300: 7339 1abe e59d 87bc c0df 04bb 4d39 d93d
00000310: 7f38 44be bd0f 473e c636 f03d 04ca 3bbe
00000320: 864b 383e d1d1 cd3d 41d5 c0bc 0cd9 413d
00000330: db34 8b3d 6fb9 2b3d a73d 063e 951a 8cbd
00000340: 60fd a13d 1946 663d 4931 273e 56ae 353e
00000350: cf0d e63d c1bf c3bd 1907 643b 9ef4 d53d
00000360: 8963 cc3d 3323 e7bd b541 213e 27d1 103e
00000370: d5dc f73c 1aaf e5bd 9298 4f3d dcc9 b7bd
00000380: dfeb 443e 7f39 82bd e57f 16be 138d 523d
00000390: fdcf 853d 41d0 1e3e 0cc5 9f3c 0d9c b0bd
000003a0: 2dff 5a3e f485 663d fa36 03bd e3db 033c
000003b0: 7ac9 d5bd 9237 55be 9457 4ebe 040b 583e
000003c0: 2b6f 333e 3002 87bd f88a 0e3d 007b 2b3e
000003d0: 99b9 54be 213b 013e b75c 80bd 2f17 c93d
000003e0: 9213 a53c ef9f a53d 45c8 0d3e ba22 20be
000003f0: c529 6f3d 353d e53d 28e3 0c3d 36ad 41bd
0.13081232 0.12776294 0.14881529 0.17490268 0.05052522 0.076675974 0.21479338 -0.10180668
0.18770672 -0.13630159 0.05458023 -0.20266682 0.10876738 0.08958077 0.1471427 -0.09887418
-0.09381552 0.10085245 0.21693869 -0.12758665 -0.0028915082 0.04411501 0.063473545 -0.21491875
-0.18582483 -0.02109549 -0.053081807 0.046020288 0.1246772 -0.02360843 -0.10994362 -0.067970306
-0.011455937 0.016691856 -0.118186265 -0.007198469 -0.18349887 -0.1148574 0.11650747 0.10453131
-0.004590207 -0.21035498 -0.098971315 -0.15013446 -0.18040243 -0.00012549502 0.16973922 -0.12727743
-0.0737696 0.058153488 -0.109544404 -0.016173525 -0.13350089 0.024606174 -0.020227963 -0.006640557
-0.12325597 0.17093976 -0.00602362 0.19058587 0.08030227 -0.05985701 -0.0921547 0.118270725
-0.004578223 0.09966828 -0.03559421 0.040463515 -0.11153746 0.02044046 -0.13524932 -0.05567278
0.026266314 -0.19112815 -0.058822136 0.045280907 0.0029560972 -0.19141836 -0.016846186 -0.113871604
-0.15150996 0.13895151 -0.1904036 0.15991957 0.028760482 -0.18214092 0.047544386 0.11036551
0.12845105 0.0471702 -0.12007302 0.050880503 -0.22030096 0.09644491 0.03109227 0.11206014
0.063851364 0.19513965 0.07008999 0.010789294 -0.14470999 -0.21012042 -0.19308907 0.049425382
0.018341193 0.11218237 0.1474204 -0.20364772 -0.10782579 0.11614917 -0.040899638 0.036431774
0.11498061 0.19911414 -0.13391365 -0.05570603 0.20822927 0.091594756 0.16010182 -0.18791491
-0.037217736 0.1953272 0.12140762 -0.17771704 0.053038243 0.0965294 0.049922988 0.09422973
0.14067578 -0.20130734 -0.11911275 0.13938506 0.10825482 0.17505994 0.1098201 0.085047394
-0.044820487 0.01856817 0.028811678 -0.14191422 0.14128086 -0.0483603 0.10000183 -0.10791711
0.20407544 0.026573638 0.18455794 0.18554987 0.005053256 -0.21896924 -0.06842915 -0.06165727
-0.21172625 0.112613164 -0.19711235 -0.16151479 0.0714046 -0.15691975 -0.19375403 -0.033415336
-0.13505667 0.12491159 -0.11238401 0.1534478 -0.1855958 -0.10661239 0.14580707 0.15242016
-0.05922103 0.21490744 -0.19694427 0.049500708 0.15787974 -0.1966112 0.15646784 -0.15790479
0.20937397 0.041581772 0.18294199 -0.17868291 -0.15745491 -0.19267938 0.15386884 -0.20231771
0.16178238 0.2040806 0.11061478 -0.14688516 -0.21116504 -0.13573346 0.047910094 0.20118244
-0.15060978 -0.016554782 -0.0020274967 0.106066324 -0.19162177 0.19439597 0.11729197 -0.18338782
0.1799756 0.10049785 -0.023539187 0.047326133 0.06797191 0.04192489 0.13109456 -0.068410076
0.079096556 0.056219194 0.16327395 0.17742285 0.112331025 -0.095580585 0.003479427 0.10447048
0.09979922 -0.112860106 0.15747721 0.14142285 0.030256668 -0.112150386 0.05068261 -0.089740485
0.19230603 -0.06358623 -0.14697225 0.05140407 0.06533811 0.1550913 0.019503139 -0.08623514
0.21386404 0.05628009 -0.03203485 0.008048031 -0.10438819 -0.2082198 -0.20150596 0.21097952
0.17522876 -0.06592214 0.0348005 0.1674614 -0.20773925 0.12620212 -0.06267684 0.09818875
0.020150933 0.080871455 0.13845928 -0.15638247 0.058389444 0.11193315 0.03439632 -0.047284327
